…
INFO:MDC_240T_i3d_VALval_G1_L1_D1_2(1):learning rate:**********************************************************************************************************
INFO:MDC_240T_i3d_VALval_G1_L1_D1_2(1):training on optimizing localizing
INFO:MDC_240T_i3d_VALval_G1_L1_D1_2(1):              |: lr 0.001, wd 0.0001
INFO:MDC_240T_i3d_VALval_G1_L1_D1_2(1):************************************************************************************************************************
Model**************************************************************************************************************
GMD(
  (sentence_encoder): RNNEncoder(
    (word_embed): Linear(in_features=300, out_features=300, bias=True)
    (rnn_cell): BiLSTM(
      (lstm): LSTM(300, 256, num_layers=2, batch_first=True, dropout=0.5, bidirectional=True)
    )
  )
  (video_encoder): QueryAwareEncoder(
    (blocks): ModuleList(
      (0): rnn_recalibration_layer(
        (rnn_cell): BiLSTM(
          (lstm): LSTM(1024, 256, num_layers=2, batch_first=True, dropout=0.5, bidirectional=True)
        )
        (attention): SCDM_Attention(
          (W_s): Linear(in_features=512, out_features=512, bias=False)
          (W_a): Linear(in_features=512, out_features=512, bias=True)
          (w): Linear(in_features=512, out_features=1, bias=False)
        )
        (sent_linear): Linear(in_features=512, out_features=512, bias=True)
      )
      (1): rnn_recalibration_layer(
        (rnn_cell): BiLSTM(
          (lstm): LSTM(512, 256, num_layers=2, batch_first=True, dropout=0.5, bidirectional=True)
        )
        (attention): SCDM_Attention(
          (W_s): Linear(in_features=512, out_features=512, bias=False)
          (W_a): Linear(in_features=512, out_features=512, bias=True)
          (w): Linear(in_features=512, out_features=1, bias=False)
        )
        (sent_linear): Linear(in_features=512, out_features=512, bias=True)
      )
    )
    (norm): LayerNorm((512,), eps=1e-05, elementwise_affine=True)
  )
  (CMI): VideoSentenceConcat()
  (span_predictor): SpanPredictor_Boundary(
    (predictor): MLP_predictor(
      (start_mlp_1): Linear(in_features=1024, out_features=256, bias=True)
      (start_mlp_2): Linear(in_features=256, out_features=1, bias=True)
      (end_mlp_1): Linear(in_features=1024, out_features=256, bias=True)
      (end_mlp_2): Linear(in_features=256, out_features=1, bias=True)
    )
  )
  (csmm): VideoTextSemanticMatch(
    (cross): VideoTextConcat()
    (temporal): NoTemporal()
    (predict): TwoLayerdMLP(
      (predict): Sequential(
        (0): Linear(in_features=1024, out_features=1024, bias=True)
        (1): ReLU()
        (2): Linear(in_features=1024, out_features=1, bias=True)
      )
    )
  )
  (fc_classifier_domain_video): Sequential(
    (0): Linear(in_features=1024, out_features=1024, bias=True)
    (1): ReLU()
    (2): Linear(in_features=1024, out_features=2, bias=True)
  )
)
Total %d sentences for training/testing 51415
Total %d sentences for training/testing 3521
INFO:MDC_240T_i3d_VALval_G1_L1_D1_2(1):train: epoch[000], batch[0000/1607], elapsed time=0.49s, loss: 13.044, miou: 0.057, loss_g: 10.965, loss_intra: 1.363, loss_inter: 0.001, loss_d: 0.715
INFO:MDC_240T_i3d_VALval_G1_L1_D1_2(1):train: epoch[000], batch[0100/1607], elapsed time=0.40s, loss: 9.471, miou: 0.352, loss_g: 7.541, loss_intra: 1.232, loss_inter: 0.005, loss_d: 0.693
…
